data.pth (torch, 6423 bytes, 6 tensors)

layer_1.weight f4 [8, 84]
000000 c0 30 46 bb 5e c3 a3 bc 0f dd 1c bd cc f6 a3 bd
       -0.003024146 -0.01999062 -0.038296755 -0.08006057
000010 d5 97 9d bd 66 77 9f 3d 19 e0 c6 3d c1 09 a5 3d
       -0.07694975 0.07786445 0.09710712 0.08058501
000020 a5 65 2b bd 0d 70 1e bd 11 6a ac 3d 44 7a d5 bd
       -0.041844983 -0.03868108 0.08418668 -0.10423711
000030 b8 40 d8 3d 30 05 cf 3c e9 68 1c bd 06 7c d9 3d
       0.10559219 0.025271028 -0.038185988 0.10619359
000040 84 bf db bd 92 de 8b 3d 69 90 be bd c9 96 1a bd
       -0.10729888 0.06829561 -0.09304888 -0.037741456
000050 f2 4d 3b bd 23 09 26 3b 59 ac 93 3d d4 90 99 bc
       -0.04572863 0.0025335036 0.07210607 -0.018745817
000060 3e 1f 4e 3d e6 aa c6 3c f2 52 b9 3c a7 a4 00 bd
       0.050322764 0.024251413 0.02262256 -0.031407025
000070 80 b0 66 bd e0 1f bb bc d1 ef 1e 3b 9f d0 86 bd
       -0.056320667 -0.022842348 0.0024251828 -0.0658276
000080 6b 19 d4 bd 5d 6a 3d bd 10 f2 e1 3c 22 6e bb 3d
       -0.103564106 -0.046244014 0.027581245 0.091518655
000090 ab 1d d4 3b 55 ed 53 bd 10 90 aa 3d 2f 77 ab 3d
       0.0064732633 -0.05174001 0.08328259 0.08372342
0000a0 31 da 92 3d 9f 58 af 3c 7c 88 cc bc 3e 39 8f 3c
       0.07170523 0.021404563 -0.024967425 0.01748335
0000b0 61 2b 5c 3d 70 98 67 3c a3 00 a2 bc ef a5 90 3d
       0.053752307 0.014135465 -0.019775694 0.07062899
0000c0 a9 8b b5 bd 8b fa 48 3c 0c 9f b7 bd 86 b4 0a 3c
       -0.08864529 0.012266765 -0.08965883 0.008465892
0000d0 8c af 95 bd 6a 84 bc 3b 36 d5 45 3c d1 bd a7 3c
       -0.073088735 0.0057530897 0.012074759 0.020476254
0000e0 fb 11 13 bd 43 49 d2 bc 41 f4 81 3d 11 7b c4 3d
       -0.03590582 -0.0256697 0.06345416 0.095937856
0000f0 f2 7e fd 3b 83 ed df 3c a3 1e ab 3d 56 a4 cb bd
       0.0077360803 0.027334934 0.08355453 -0.09943454
000100 79 d8 0b bd d0 f8 8f 3c 25 7d 68 3d 86 f4 11 bd
       -0.03414199 0.017574698 0.056759972 -0.035633586
000110 59 cb 9c bd 95 74 03 bd 61 f8 7f bc 91 f5 84 bd
       -0.07655973 -0.032093603 -0.015623183 -0.064921506
000120 1b 39 b5 bd 08 5c dd bd 6e 7b dc bd 7d 30 8a 3d
       -0.08848783 -0.10808569 -0.1076573 0.0674753
000130 11 fb 39 bd 65 32 3b bb e8 23 1a bd 4a e8 c5 bd
       -0.04540545 -0.0028563973 -0.0376319 -0.09663446
000140 bc b5 d5 bd 79 35 bb 3d ad bb d0 3d e6 d0 23 3b
       -0.10435054 0.091410585 0.10192046 0.002499634
000150 f0 5e f0 3c 4d 15 04 3a 1b 0a 85 3d ca 87 50 bd
       0.029342145 0.00050385745 0.06496068 -0.05091075
000160 07 00 07 3d bd f9 b0 3d fd 4f 8a 3d dd 79 d3 bd
       0.03295901 0.08641384 0.06753538 -0.10325978
000170 2b 00 0e 3d 0e fc 26 3d 24 45 7f bd 29 4f 82 3d
       0.03466813 0.04076772 -0.062321797 0.06362755
000180 a9 0e 52 3d 37 19 c5 3a 21 dc eb bb 97 97 22 3c
       0.051283512 0.0015037422 -0.0071978723 0.009923837
000190 1c 3e af 39 5d 09 4f bd bb 11 3f 3d 70 d5 69 3d
       0.00033424876 -0.05054604 0.04664777 0.057088315
0001a0 11 35 8e bd 9c 16 ca bd 59 d3 9b bd 48 95 65 bc
       -0.06943715 -0.09867594 -0.07608671 -0.014012642
0001b0 2f 9c 92 bd 7f b9 08 bd 18 7b 77 3d dd bb 99 bd
       -0.07158696 -0.033380028 0.060420126 -0.07506535
0001c0 4d 4a 5f bd 37 c6 dd 3d 99 a4 ac bc 98 2b 77 bd
       -0.054514218 0.10828822 -0.02107458 -0.06034431
0001d0 e7 c3 9d bd 70 0b 23 3d 91 92 e1 3b 29 9a 06 3d
       -0.07703381 0.03980583 0.006883927 0.032861862
0001e0 96 d0 5b 3d 71 64 1a bc d4 e7 a2 3d 9c d2 93 bd
       0.05366572 -0.009423361 0.07954374 -0.07217905
0001f0 44 9a 4d bc 08 37 2e 3d cd c5 ae 3d 9b 26 8d bd
       -0.012548987 0.04253295 0.08533821 -0.06892129
000200 74 0e b1 bd 0f e2 10 39 f1 c8 81 3d 0a c8 d3 bd
       -0.08645335 0.00013817124 0.06337155 -0.10340889
000210 f2 4e 31 bd a0 7f dd bd 1f 12 a0 bd 64 0a 88 bd
       -0.04328818 -0.10815358 -0.07815956 -0.06642607
000220 28 0b 26 3d ef 57 f6 bc a5 95 ea bc 72 f7 6f 3d
       0.040537983 -0.030071227 -0.02863581 0.05858559
000230 ac be 4b 3d 15 3c 93 3d ae b8 55 bd 0e 7e 12 bb
       0.049742386 0.07189194 -0.052178077 -0.0022352966
000240 60 87 74 bd e4 ba a9 3d ec 75 c7 3c ac fa b4 bd
       -0.059699416 0.082876 0.024348222 -0.08836874
000250 4c d8 89 3d ab 50 3d bb 93 48 b1 3d 34 44 c1 bd
       0.067307085 -0.0028887193 0.086564206 -0.09436837
000260 50 60 ab 3d 72 1c 84 bd 93 be 62 3d 27 16 3e 3c
       0.083679795 -0.06450738 0.055357527 0.011601961
000270 79 05 cc bd 04 c4 59 3c e7 dc b1 3d 6c 42 ae 3d
       -0.09961981 0.013291363 0.08684712 0.08508763
000280 33 31 da 3d 93 53 71 bd ba 7a c9 3d dc 9f c8 3d
       0.10653915 -0.058917593 0.09837861 0.09796116
000290 50 cd ce 3d f9 7a 81 3c 35 95 9d bd 5c ac c4 bd
       0.10097754 0.015805708 -0.076944746 -0.096031874
0002a0 65 4a 5f bb 1d 4e a0 bc 51 fe 2f 3d 75 05 80 3d
       -0.0034071442 -0.019568497 0.042967144 0.06251041
0002b0 ee 2a 52 3b 0f 8f 9a bd 46 4a 5b bd 6d 2c 9e bd
       0.0032069045 -0.075468175 -0.05353763 -0.07723317
0002c0 3f d6 8c 3d 9b d8 27 3d 59 ac 1a 3d 58 5f 8c bd
       0.06876802 0.040978055 0.03776202 -0.06854123
0002d0 f7 f8 94 bd e2 f6 1a 3d 9f 5b 99 bd 16 85 89 3d
       -0.07274049 0.037833102 -0.074881785 0.06714837
0002e0 99 53 1b bd 4f 55 c4 bd 18 c9 f2 bc c5 ab 8e 3d
       -0.03792152 -0.09586584 -0.029636905 0.06966356
0002f0 7b 92 18 bd 4c b6 02 bc 0a 1d df bd b3 16 99 bd
       -0.03724907 -0.007978033 -0.10894211 -0.07475033
000300 c9 33 8c 3d 5f c3 99 3d 00 23 9c bc dc 24 1e 3d
       0.06845815 0.07507967 -0.019059658 0.03860937
000310 92 b0 24 bc ed 1b 89 3d 90 74 f1 3c 35 d3 9b 3d
       -0.010051863 0.066947795 0.029474527 0.07608644
000320 62 bf c6 bd 87 f0 c9 3d de c0 6e bd 7d b3 d2 bd
       -0.09704472 0.0986033 -0.0582894 -0.10288141
000330 c3 69 76 bd 42 28 15 3c 83 09 a4 3d ce a7 c1 bc
       -0.060159456 0.0091038365 0.08009627 -0.023639586
000340 ae a6 43 bd b5 64 80 3d 14 bd 9d 3d 04 4a d6 bd
       -0.04776638 0.06269208 0.077020794 -0.10463336
000350 5d 0b bb bc e7 36 53 ba 77 33 f6 3c 8b 4e 07 3d
       -0.022832567 -0.00080571923 0.030053837 0.03303389
000360 19 b3 fe 3c c5 ed bb 3d 22 53 88 3d 40 84 8d 3d
       0.03109126 0.0917621 0.06656481 0.0690999
000370 5a 02 58 3d 30 f7 d1 3c d8 2d d4 bc 3c db a8 3d
       0.052736618 0.025630563 -0.025900766 0.08244941
000380 ac 2b 8d bd 95 63 dc 3d 3e 45 3b bd 2d 83 ae bd
       -0.068930954 0.10761181 -0.04572033 -0.085211135
000390 7b cf 9e bd 12 9c dd 3b 3a dd 80 3c f4 3c 02 3d
       -0.077544175 0.00676299 0.015730489 0.03179641
0003a0 02 fa c0 3d f2 53 33 bd 4e 0b 26 3d 66 2c ff 3a
       0.09422685 -0.04378123 0.040538125 0.0019468188
0003b0 a6 69 1b 3c 99 83 97 3d ca d9 cf bc 08 ab c5 3d
       0.009485638 0.07398147 -0.025372405 0.09651762
0003c0 71 4c 34 3d 81 d5 8e bd 32 d3 ce bd 7a 49 8c 3d
       0.044018213 -0.069743164 -0.10098876 0.06849952
0003d0 6c b1 f1 bc 90 d6 37 bc 90 34 d3 3d 1a 1a 2f bc
       -0.029503547 -0.011220589 0.1031276 -0.010687375
0003e0 4f b7 2c 3a e1 96 c5 bd d5 52 4b bd 3a 85 35 3d
       0.00065885944 -0.096479185 -0.04963954 0.044316508
0003f0 a9 fe b3 3d 34 82 98 bd 8e fd 8e 3d 93 eb 69 3c
       0.08788807 -0.07446709 0.069819555 0.014277357

layer_1.bias f4 [8]
000000 8d 41 a6 3d e2 66 a1 bb 60 87 92 bd a1 6a 0c 3e
       0.081179716 -0.0049255947 -0.07154727 0.1371255
000010 83 0b 4a 3d a2 f7 28 bb e5 18 1b bd a6 a3 a1 bc
       0.049327385 -0.0025782366 -0.03786554 -0.019731354

layer_2.weight f4 [8, 8]
000000 e5 68 14 3c 85 21 99 be a5 1d 35 be da 96 de bd
       0.009058212 -0.29908386 -0.1768709 -0.108686164
000010 80 fd 0b be 0b 61 0b 3d 05 3b d7 3d 72 07 ac be
       -0.13670921 0.034028094 0.10509304 -0.3359943
000020 84 4e 8b 3e 1d d7 91 3d 64 2d 89 be 02 61 51 3d
       0.2720834 0.07121108 -0.26792443 0.051117904
000030 fd 0f d2 bd 57 2b 66 bc 05 f1 27 be 4a b2 2f 3e
       -0.10256956 -0.014048419 -0.16400535 0.17157856
000040 4a 3c b4 3d 69 f7 94 3e d5 14 a8 3e 81 23 4f 3e
       0.08800562 0.2909501 0.32828394 0.20228387
000050 28 9c 37 3c d2 15 c5 3d 79 13 90 3e 20 4e 22 bd
       0.011206664 0.096233025 0.28139856 -0.039625287
000060 06 0b e8 bd 67 6e 45 bd 4d ff 80 bc fe 14 c6 3d
       -0.113302276 -0.04820099 -0.015746737 0.09671973
000070 60 74 a7 3e d7 20 6f 3d ca 48 bd 3d 09 80 06 3e
       0.32705975 0.058380928 0.09242399 0.13134779
000080 8d c8 d7 3e 20 78 8a 3e d5 b2 24 be cf d9 74 3e
       0.42145196 0.27044773 -0.16083844 0.23911212
000090 fa d4 1c bd b2 bc 90 bd 44 88 4b 3e 42 a5 6f 3e
       -0.038289048 -0.07067241 0.198762 0.23402885
0000a0 4d f5 a3 bd a1 68 f5 3d 7e 59 2f be e5 3b 35 3e
       -0.08005772 0.11982847 -0.17123982 0.17698629
0000b0 9f 2d f8 be 75 c2 a1 be 06 b2 b1 3e f9 f9 b0 3e
       -0.48472306 -0.3159367 0.34706134 0.34565714
0000c0 e7 c3 0b be 1d 72 9e 3e 84 54 88 3e 5b 42 d7 bd
       -0.1364895 0.30946437 0.2662698 -0.10510703
0000d0 60 1f b1 bd 21 fd 3a 3e f4 b4 9d 3e a6 c7 0f bd
       -0.086485624 0.18260624 0.3080212 -0.03510251
0000e0 8f 71 28 3d e0 73 aa 3e c9 53 e0 3d fe a7 e8 be
       0.041123923 0.3329153 0.10953481 -0.45440668
0000f0 01 af 70 3d 3b c7 8c 3e 40 5f a6 bd bd a0 5a 3d
       0.058760647 0.2749575 -0.08123636 0.05337595

layer_2.bias f4 [8]
000000 9f cb 64 3e c3 62 8e 3e e2 c5 dd bc 60 7d a6 be
       0.223433 0.27809724 -0.027071897 -0.3251753
000010 c9 ef 26 3e ba 8f 3d 3e 57 02 83 bd 35 98 e3 3d
       0.16302408 0.18511859 -0.06396931 0.111130156

layer_3.weight f4 [7, 8]
000000 52 fd 33 bc d4 0a 04 bf 71 9e d7 3c 0c e6 4b be
       -0.010985689 -0.5157902 0.026320668 -0.19911975
000010 62 68 94 be 1c 82 14 bb a3 86 b9 3d d4 14 ac 3d
       -0.28985888 -0.002266056 0.09058883 0.0840241
000020 9a dc 23 3d 59 20 85 be 57 ed 81 3e f8 c4 7b 3e
       0.040005304 -0.26001242 0.25376388 0.24586856
000030 f7 bb 10 be 44 12 15 bd c1 32 51 3e 45 92 58 be
       -0.14134203 -0.036394373 0.20429517 -0.21149547
000040 3d cd 1d 3e f7 99 a8 3e 5f 1a 43 3e a3 6d 43 be
       0.15410323 0.32929966 0.19053029 -0.19084792
000050 a6 04 6b bc 2c fa 96 3d e1 01 ab be e8 e5 21 3d
       -0.01434437 0.07371935 -0.3339987 0.039525896
000060 bd df e0 bd 9f f3 d4 bd 1a 03 5f be dc 63 e7 3d
       -0.10980175 -0.103980295 -0.21778527 0.112983435
000070 9f 16 84 3e 8a 29 7b bc 91 cc c3 3d 85 c7 c7 bd
       0.2579851 -0.015329728 0.09560502 -0.09754852
000080 d9 d5 c5 be b9 b7 f7 bc a5 22 b4 be 37 81 bf bd
       -0.38639715 -0.030238973 -0.35182682 -0.09350818
000090 75 2f b4 be 0f d4 13 be 6d dc a4 3e 5c 27 93 be
       -0.35192457 -0.14436363 0.32199422 -0.28740966
0000a0 e6 af 13 3e a7 8e 0a be 66 3c a0 3e b8 55 04 be
       0.14422569 -0.1353098 0.3129608 -0.12923324
0000b0 eb ff 94 3d f4 06 d6 3d ac c8 6e 3c bf ed 34 3c
       0.07275375 0.10450545 0.014574211 0.011043011
0000c0 45 fb 82 be c2 a5 43 be 77 92 50 be 5c 26 a0 3e
       -0.25582328 -0.191062 -0.20368372 0.31279266
0000d0 bf 8e 5c be 52 af 1f bd 6e 90 50 be b1 40 47 be
       -0.21538828 -0.038985558 -0.20367596 -0.19458272

layer_3.bias f4 [7]
000000 11 2e 8a bd 12 98 2e be c8 58 27 be df 77 83 3e
       -0.06747068 -0.17050198 -0.16342461 0.25677392
000010 1f a6 3a bd 23 fa 17 bd 93 b9 6d 3e
       -0.04556858 -0.037103783 0.23215322
