data.pth (torch, 22935 bytes, 6 tensors)

layer_1.weight f4 [8, 172]
000000 b4 71 e5 bd 4f e1 a6 3e c9 e7 b5 3e 28 8d 63 3e
       -0.11203328 0.32593772 0.355284 0.22221816
000010 25 cc d3 3c f9 f3 3d bd 86 00 62 3e f6 93 94 bc
       0.02585418 -0.04637525 0.22070512 -0.01813696
000020 fd 0c 24 3d de 69 6a 3e 74 fa de bd 99 59 84 3e
       0.04005145 0.22891948 -0.10887614 0.25849608
000030 a3 84 90 3e 1a f8 17 3c c2 28 bb bd 20 dc e9 bd
       0.28226194 0.009275461 -0.09138633 -0.11418939
000040 a2 9b bb 3e bb 7b f3 3e 37 7e 14 bd 94 c3 c8 3c
       0.36642176 0.47555336 -0.03625318 0.024507321
000050 2b 03 9f 3e d1 06 c6 bd ed 9a 72 3e 59 c7 ea 3e
       0.31057104 -0.09669269 0.23691912 0.45855215
000060 e6 49 cd bd 4a 74 82 3e 92 3a f9 3c 38 08 49 3e
       -0.10023861 0.25479347 0.030423436 0.19632041
000070 e4 e9 c3 bb 6e 05 b1 ba 5a df 7b bd cf 44 fb 3e
       -0.0059788097 -0.0013505646 -0.0614923 0.49075934
000080 6b 86 e4 3e 95 63 bc bd f3 ea e8 bb f1 00 6d bd
       0.44633803 -0.09198681 -0.0071080863 -0.057862226
000090 70 51 c0 3e 26 34 a6 bd 87 83 bd 3e 86 e8 4a bd
       0.37562132 -0.08115415 0.3701441 -0.049538158
0000a0 56 5a 9b bd 2c 45 6a bd 57 56 9d bd b4 47 63 bd
       -0.075855896 -0.057194874 -0.07682484 -0.055488303
0000b0 15 c4 4b 3e c7 d8 b2 bd fd b8 46 bc 12 e0 b3 bd
       0.19899018 -0.08732753 -0.012129066 -0.087829724
0000c0 c2 a7 46 3e 5e 64 99 3e b7 85 10 3f be 4a 04 3c
       0.19399932 0.29959387 0.5645403 0.008074461
0000d0 38 f9 48 be a5 91 91 3e c6 fb 2a 3d 3b 78 d7 bc
       -0.1962632 0.2843143 0.041744016 -0.026302448
0000e0 5d ae 90 3e 1c 03 c3 bc d6 9f 3a bd 2b a3 8a bb
       0.2825803 -0.023805194 -0.045562588 -0.004230877
0000f0 e6 16 73 bd 35 fa a7 3e 2d 65 0c be 01 4a 95 3e
       -0.05934801 0.3280808 -0.1371047 0.29158023
000100 96 db 9b 3e dc 1b 7b 3e f9 f8 c1 3e b9 b5 1d bd
       0.30440968 0.24522346 0.37885264 -0.038503382
000110 74 76 78 3e 50 77 5e 3e 83 10 cd bd d5 1c 5a 3e
       0.24263936 0.21725202 -0.10012915 0.21300061
000120 74 3f a2 bd 06 79 7a 3e ef 58 d2 3e 60 c6 a7 bd
       -0.07922259 0.2446023 0.41083476 -0.08192134
000130 1f 5a 50 3c cc d7 fb bd a6 81 ab bd af be 90 bd
       0.012716799 -0.12297019 -0.08374338 -0.0706762
000140 7c f0 b4 3e 1b f3 3f 3e 28 c5 09 be f6 ef a3 3d
       0.35339725 0.18745081 -0.13454115 0.08004753
000150 33 61 a3 3e a5 e8 95 3d e6 18 67 3e 6f fd 90 3e
       0.31910095 0.07319764 0.22568092 0.28318354
000160 c6 4a a3 3c 1e cf 6f 3e 8d 4a 8b 3e 26 4d b8 3e
       0.019933116 0.23418853 0.27205315 0.3599636
000170 e4 b4 13 be 0b 47 e0 3e 13 3f 8c bd 83 2e e0 3c
       -0.14424473 0.438042 -0.06847968 0.027365929
000180 e9 64 a0 bd ee c0 a6 3e a4 48 58 3e 46 e8 9e bd
       -0.07831747 0.3256907 0.2112146 -0.077591464
000190 cc 08 96 bd 74 53 5c bd 7e 0b 7c bd b2 a8 70 3e
       -0.073258966 -0.053790525 -0.061534397 0.23501852
0001a0 c6 29 38 bd c0 03 a7 3e 42 45 67 3e 14 6f 74 bd
       -0.044961713 0.3262005 0.22585014 -0.059676245
0001b0 b2 ef a6 3e 45 21 70 3e 0b b6 a6 bd 00 6c af bd
       0.32604748 0.23450191 -0.08140191 -0.08565521
0001c0 8a ab 9c 3e 62 a2 6b bd e9 89 9c 3e 56 76 5f bd
       0.30599624 -0.057527907 0.30573967 -0.054556213
0001d0 c6 88 89 3a d7 d6 39 bc b6 33 56 3e 9e 28 14 bd
       0.0010493032 -0.011342726 0.20918164 -0.036171548
0001e0 e3 6b 91 3e 08 3a b7 3e f5 a9 a1 bc bb 6c f1 bd
       0.28402624 0.35786462 -0.019734362 -0.11788317
0001f0 bd 8a 9a bd 16 95 2c 3d 8a 27 ee 3e a2 db 45 3e
       -0.075459935 0.042134367 0.4651454 0.19322065
000200 f1 8d aa bc 88 83 b7 3e fa 71 f2 3e 8f ac bb 3e
       -0.020819636 0.35842538 0.47352582 0.3665509
000210 e4 3a 81 3e 75 f4 cf bc 47 dc e8 3e 46 d2 8a 3e
       0.25240242 -0.02538512 0.45480558 0.2711355
000220 ca 08 8e 3e 61 a2 c1 3e 76 43 a3 3e 31 78 4c 3a
       0.2774108 0.37819198 0.31887406 0.00077998923
000230 91 2f 1b bd d5 6c 38 bd 8d 1f 19 3e d7 97 8f bd
       -0.03788716 -0.045025665 0.14953442 -0.07011383
000240 73 90 a3 3e 62 17 82 3e 04 4a 01 3f 1a f8 73 3e
       0.31946144 0.25408465 0.50503564 0.23825112
000250 f3 a1 b6 3e a4 6c 17 3d 55 52 96 3e 69 b2 9f 3e
       0.35670432 0.036968842 0.2935969 0.31190804
000260 8a 90 9b 3e e4 80 64 3b fe fb 92 3e 83 45 8c 3e
       0.30383712 0.0034866864 0.2870788 0.27396783
000270 15 b7 17 3e 87 4d 19 3e eb fb 6a 3e 66 8f 00 3d
       0.14815934 0.1497098 0.22947662 0.031386755
000280 4f 39 67 bd 64 45 6a bd ed ae 52 3e bd 4e 04 bd
       -0.056451138 -0.057195082 0.20574541 -0.032301653
000290 8c 29 36 3e b7 56 bd bb ee 7a 14 3e 14 09 b0 bd
       0.17789286 -0.0057781595 0.14500019 -0.085954815
0002a0 d9 8d 18 3f f1 6b 8d 3e 2c ec e3 3c 80 af 50 3e
       0.5959144 0.27621415 0.027822576 0.20379448
0002b0 2c 29 c2 3e ff 04 68 3e 23 94 90 3e d3 da 80 3e
       0.37922037 0.22658156 0.2823802 0.2516695
0002c0 eb cf aa 3e 1f 80 4b 3e 93 4e 9a 3e 16 d3 a8 3d
       0.33361754 0.19873093 0.30138072 0.082433864
0002d0 7c 1b b1 3e b5 bb 8d 3e 68 40 52 3e 63 80 59 3e
       0.3459128 0.27682272 0.20532382 0.21240382
0002e0 1e 5d a6 3e d3 f6 a5 3e b0 39 9a 3e 75 4d bb 3e
       0.32492918 0.32414874 0.30122137 0.36582533
0002f0 fb ad 78 3e 8e 2f 90 3c 81 78 ab 3e e3 0d 85 3d
       0.24285118 0.0176008 0.33490375 0.06496789
000300 90 a9 74 3e 66 7f 89 3e be 3c ca bd f0 f9 07 3e
       0.23892808 0.2685501 -0.09874867 0.13278937
000310 77 d6 84 3e 45 dc 8a 3e a4 43 bf 3e b1 73 18 bc
       0.25944874 0.27121177 0.37356293 -0.009304927
000320 ad a9 86 3e d2 32 a5 3e 6b ad 9a 3e 6f 0d ab bd
       0.26301327 0.32265335 0.30210432 -0.08352172
000330 da c9 04 3f 24 a5 0b 3e 77 4b b8 3e 2c ce a9 3e
       0.518705 0.13637215 0.35995075 0.3316511
000340 c8 df aa bd ea 5a 7a 3e 93 d9 08 3c 7a 39 8d 3e
       -0.08343464 0.24448743 0.008352655 0.27582914
000350 fc 9c 54 3e c7 97 65 3e e0 b8 9f 3e fd a3 50 3e
       0.2076301 0.2242118 0.31195736 0.20375057
000360 e4 04 a7 3e d5 ab 99 3e 66 59 02 3e 6e 6c 55 3e
       0.3262092 0.3001391 0.12729415 0.20842144
000370 7e 3c 77 3e a6 56 af bc be ed f8 3e 46 b7 34 3e
       0.2414417 -0.021403622 0.48618883 0.17648038
000380 b4 89 6e 3e db 33 87 3e 0f 30 49 3e 3b 26 98 3e
       0.23294717 0.2640675 0.19647239 0.29716668
000390 45 a7 78 bd 22 b0 c7 3d 1e bd 9b 3e 39 90 4d 3e
       -0.060706396 0.097503915 0.30417722 0.20074548
0003a0 80 de 65 3e 1a f1 f2 bd 44 a2 be 3e eb 93 23 bd
       0.22448158 -0.11862393 0.37233174 -0.039935987
0003b0 cb 49 9e bd 4b d6 38 bd 29 48 01 bc 80 d5 c1 3e
       -0.07728919 -0.04512624 -0.0078907395 0.378582
0003c0 10 6e 51 bd c2 29 0c 3e dc e3 c8 3e 07 db 98 3e
       -0.051130354 0.13687804 0.39236343 0.29854605
0003d0 35 d4 5e 3e 3d 32 9c 3e ad 53 8a bb 9d 09 5c 3e
       0.21760638 0.3050708 -0.0042214007 0.21488042
0003e0 eb 0b 1a 3d af c3 48 3e d1 0c c3 3e d9 71 a6 3e
       0.037609022 0.19605897 0.38095716 0.32508734
0003f0 1d 7d 5e bd eb 7c 91 3e 78 b2 ba 3e a0 7d 97 3e
       -0.054318536 0.28415617 0.36464286 0.29588032

layer_1.bias f4 [8]
000000 35 aa 5e 3f eb c7 22 3f 37 df 26 3f 2e af 14 3f
       0.86978465 0.635863 0.6518435 0.58079803
000010 34 b1 1d 3f c2 80 0f 3f d0 fb 5d 3f 7f 0e 4e 3f
       0.61598516 0.56055844 0.8671236 0.8049087

layer_2.weight f4 [8, 8]
000000 bc b7 66 be b9 a0 1b 3f 68 6a 14 3d a3 38 86 3f
       -0.22531027 0.6079212 0.03623429 1.0486034
000010 59 90 66 be e0 13 1c 3f c1 82 24 3f a2 35 00 bf
       -0.22516002 0.60967827 0.64262015 -0.5008184
000020 bd 4b 27 3f fe 68 76 3f c1 c3 94 3f f7 27 57 bf
       0.6534994 0.96253955 1.1622239 -0.84045357
000030 bc e7 1b bf 25 f5 07 bf cd 12 19 3f 7f 18 fd be
       -0.60900474 -0.53108436 0.5979431 -0.49432752
000040 b2 11 77 3f fb ec 21 bf a3 a3 93 3f 40 c8 4f 3f
       0.96511376 -0.6325223 1.1534313 0.8116493
000050 da 09 76 bf ae 2a 87 3f 8b 79 ce be 3a 28 36 3f
       -0.9610878 1.05599 -0.40327105 0.7115513
000060 4a 1d a6 be 29 89 49 bc 38 2b ba bd 83 3b 17 3d
       -0.3244422 -0.012300768 -0.090902746 0.03692199
000070 59 eb a6 3e 65 94 76 be aa aa aa be 74 b5 bf bd
       0.3260143 -0.24080046 -0.3333333 -0.09360781
000080 75 16 40 3f d0 5f 14 3f 2f 3e 52 bf 36 7d b3 3e
       0.75034267 0.579587 -0.82126135 0.35056466
000090 56 f2 8a 3f 81 1c 37 bf 6f f4 85 3f 9a 80 63 3f
       1.0855205 -0.7152787 1.046522 0.88868105
0000a0 a3 3f 66 be 3a 4a 28 be 5d d2 ec 3d 3a e6 99 be
       -0.22485213 -0.16434565 0.11563561 -0.3005846
0000b0 31 92 a9 bd 1c fd 8c be 62 5d 70 3e ce b9 65 bd
       -0.08279837 -0.27536857 0.23473123 -0.0560854
0000c0 66 f7 6e bf 65 89 5c 3f e7 8e 1e 3f 30 70 66 3f
       -0.9334625 0.8614715 0.619368 0.90014935
0000d0 63 01 0a 3f 59 22 0e 3f ac 1c b7 be 0c 7f 0b bf
       0.53908366 0.5552116 -0.35764062 -0.54490733
0000e0 d5 06 09 be 19 6f e8 3d 39 e1 bf bd e9 6a 39 3f
       -0.13381512 0.11349315 -0.0936913 0.72428757
0000f0 78 03 06 3f 5a e5 19 be fe d9 5e 3f 9a 1e 90 bf
       0.5234904 -0.15028897 0.8705138 -1.1259339

layer_2.bias f4 [8]
000000 94 04 9c bc 4e fa 0f 3f 5a 0f fe 3e 1f 22 82 be
       -0.019045152 0.5624131 0.49621087 -0.25416657
000010 9a e2 c7 3e 73 06 9b be 36 fa e4 3e 5a 8f 20 3e
       0.3904007 -0.30278358 0.44722146 0.15679684

layer_3.weight f4 [7, 8]
000000 65 ce 20 3f 60 15 84 bf 2a e1 40 bf 49 0e 86 be
       0.62814933 -1.0319023 -0.75343573 -0.26182774
000010 a1 f4 57 bf a3 67 11 be 5f bc 0f 3f cf e6 07 3e
       -0.8435765 -0.1419969 0.56146806 0.1327164
000020 8f f6 a9 bf 77 70 9d be cc a0 09 3f fd 79 a2 bd
       -1.3278369 -0.30749866 0.5376098 -0.07933424
000030 29 fd 9c bf f3 27 6a be ca bf 53 bf 09 ed 22 bf
       -1.2264758 -0.22866802 -0.8271452 -0.63642937
000040 c9 99 87 bf 30 8d 86 be 52 9f b9 bf d3 34 8e 3e
       -1.0593807 -0.26279593 -1.4501746 0.27774677
000050 ce ce 55 3f 34 90 a9 bd 79 25 6c bf 66 3e 3a be
       0.83518684 -0.08279458 -0.9224468 -0.18187866
000060 fc 10 f6 3d 82 e6 4c 3f 37 e7 61 bf 22 44 53 3e
       0.12014958 0.80039227 -0.8824343 0.2063146
000070 ca 7b 4b be 02 91 7f bd 33 67 45 bf 3e 5b 77 3e
       -0.1987144 -0.06239415 -0.77110595 0.241559
000080 0c 13 2c 3d db d1 63 bf dc 96 9f bf 45 1c 05 3e
       0.042010352 -0.8899209 -1.2467914 0.12999065
000090 df f7 0f 3e 19 84 19 3e 5a 45 90 bb dc 14 43 3f
       0.14059399 0.14991798 -0.0044027986 0.76203704
0000a0 71 9f 24 3c c0 43 d7 3e 6f 19 98 be 32 fd 21 3e
       0.010047779 0.42043877 -0.29706904 0.15819243
0000b0 f3 50 ab bf 73 05 ab be 14 9d 02 3f 58 46 92 bf
       -1.3384079 -0.33402595 0.5102093 -1.1427717
0000c0 ba 41 56 3e 08 62 7e bf 83 25 c2 3d 56 8c b1 3d
       0.2092351 -0.99368334 0.09479811 0.08669345
0000d0 54 c5 08 3e 0d 7f 15 be a9 d7 ca be 2e ed 4f bf
       0.13356525 -0.14599247 -0.3961766 -0.8122128

layer_3.bias f4 [7]
000000 6c 7e b2 bd 2e 8c 1d 3e e7 9d b3 bd d3 d1 60 be
       -0.08715519 0.15385506 -0.08770352 -0.21955042
000010 72 9e b9 be 97 29 58 bc 93 d6 54 3e
       -0.36253697 -0.01319351 0.20784979
