data.pth (torch, 22935 bytes, 6 tensors)

layer_1.weight f4 [8, 172]
00000000: e8e4 903d 60c8 213e b72c fdbd 620f 6a3d
00000010: 0883 b53e 8443 753e a525 2dbe c549 06be
00000020: 4694 cf3e e1a8 d93e 9d1f 353e 79f9 093e
00000030: 32ba 26bd a78a de3e 1a0b d2bd ed27 ccbd
00000040: 41b4 04be df52 943c 034d 333d 6af6 21be
00000050: 9d55 ac3e bf2a bbbd a406 d33e 4816 ed3e
00000060: 12a7 783e b2b4 e8bd d7a4 1e3d 7198 58bd
00000070: 5aeb 8bbb e1f7 5f3e a2b0 8a3e 1fd2 99bd
00000080: ca16 cd3e ff28 91be 3aff 13be b3fc d1bd
00000090: 4b50 97bd 5402 8f3e a435 6b3e e415 8ebd
000000a0: e550 01be e6e1 d03d 76c0 e43e 2d5d 4d3b
000000b0: a1a0 873e 5590 da3c 2e83 67bd 48ba 4e3e
000000c0: 4256 ac3e 3cfd 9cbd e029 be3d 8602 bc3e
000000d0: 5def d03d d0bf b73e acb1 b93e 6428 40be
000000e0: 4ec6 ae3e eeda a63e 172c 4a3d 80d8 943e
000000f0: 1510 aa3e ec50 9ebd c213 663e df28 3cbd
00000100: d501 b23e 432a 02be bb72 9e3e 128e 1cbe
00000110: 344d 50bb fb13 29bd 947c 623e f350 41bd
00000120: d53b b33d 3693 02be a768 6abd fde8 273d
00000130: fbc2 09bd 5e92 b1be 6160 00be 8e95 c03e
00000140: b8d4 7f3e 0a27 5b3e 3b25 513c 806b 6d3e
00000150: 302a 7d3e 4fe7 e43e be2f f63c 6c6f 94bd
00000160: f8d5 f93e c58f 633e 4379 c4bd 724b 253e
00000170: d14e 23bd dd63 aebd beda 193e ea01 933e
00000180: b981 ac3e 5371 843e ac54 bd3d e460 2b3e
00000190: c92b 20be ab85 dc3e e4a4 bfbd 1244 1e3e
000001a0: 9a9c 863e 153c 28bd de65 a73e e0f2 633e
000001b0: e8e3 8cbd 9334 5f3e 6f09 d23e 5632 803e
000001c0: 8ea8 32bd 9333 0a3e 6900 b73e b9e3 21bd
000001d0: d70b 8f3e 0fe6 253e 48c2 bc3d 8bf7 023e
000001e0: 6ccd b03e 9fcc fabd 7361 5d3e d5f5 b0bd
000001f0: 3a87 c93e 743c 2c3c 4b5c 9c3e 58a4 8f3d
00000200: 9593 af3e 2d4f 8f3e 7d1d ae3e c066 ffbd
00000210: 3e34 b03e d7cf cebd 1abc c53e d1ea 903e
00000220: 4a46 b13e b015 b93e a579 05be c2d1 b53e
00000230: 793d d1bd 3eb3 4dbd a6eb a23e 846b ba3e
00000240: e57d aa3e 27e0 11be 6477 c93e 0ca2 973e
00000250: 44c0 123c ab81 d4bc 4def 523e 07e1 9d3e
00000260: 8a22 353c 90c6 573e 90fd a53e 75f4 18be
00000270: af84 953e 479f 08be 6756 913e e98f 833e
00000280: 46e6 be39 b104 4abd 3726 98bc 6cf8 993e
00000290: adbe 61be fe31 6dbd 1215 bcbd 545f 4bbd
000002a0: cc0d b13e 3836 9c3e ad3c ae3e 2f4d 9b3e
000002b0: 3f7b 10be a33b 2f3d 10cc ae3e 3dd6 75bd
000002c0: 04e4 c73e 0e1e f1bc 1d10 34be 5ff8 2fbe
000002d0: d7f0 bf3e 2164 9a3e 3662 e23c d6da a9bd
000002e0: d746 10be de30 913e d083 c23e 60c2 13be
000002f0: d365 16be eab8 db3e f21b ddbc c023 50be
00000300: 7ec1 693e 4475 ee3e cf8f cb3e fc63 ac3e
00000310: 491b 0d3d 5e8d a03e 00f6 f0bd 65d5 893e
00000320: f56e 8e3e 876f 50bd 0faf 52bc 1260 d73e
00000330: 9829 25be 2f8c afbe 6144 52be b2d6 6e3e
00000340: 0b24 a33e 03e7 e2bd b5e4 3ebd 6899 623e
00000350: d198 a93e e75a 11be a038 a93e abe4 883e
00000360: 7499 aabd 6a5d 04be 0ff1 9a3e 852d 9fbd
00000370: e229 863e b4d8 ab3e 4ddb 3cbe a668 68bd
00000380: 1a77 b0bc 84cc eebd 7d3d 9ebd 608b 2bbe
00000390: 38b6 7abc 082e 16bd a5a3 75bd de72 49bd
000003a0: 6c72 563e 9596 c23e 272e 023b fc69 9c3e
000003b0: ee38 423e a0fe 8e3e 0775 92bd b829 aa3e
000003c0: 446b c63e fd20 933e b33d 5abd 13a8 b53e
000003d0: 2e9d f3bd 1282 bb3e 0daa 753e f9a3 30bd
000003e0: 0010 ac3e f06f 76be 8a99 a73e 97cb b2bd
000003f0: 3333 b0bd 5894 75bd 1b3f 81bd d394 28bd
0.070749104 0.15799093 -0.12362044 0.057143576 0.3545153 0.23951536 -0.16908891 -0.13114078
0.4054281 0.42511657 0.17687841 0.13474073 -0.040704913 0.43465158 -0.10256024 -0.09968553
-0.12959386 0.018105922 0.043774616 -0.15816656 0.33659068 -0.091390125 0.41216004 0.46306062
0.24282482 -0.1136259 0.038731422 -0.052879754 -0.0042699995 0.21871902 0.27087885 -0.075107805
0.4005645 -0.2835159 -0.1445283 -0.10253277 -0.073883615 0.27931464 0.22969681 -0.06937769
-0.12628515 0.10199337 0.44678086 0.0031336055 0.26489738 0.026680151 -0.056521587 0.20188248
0.3365956 -0.07665488 0.09285331 0.36720675 0.10201905 0.3588853 0.36268365 -0.18765408
0.3413567 0.32588905 0.049358454 0.29071426 0.33215395 -0.077302784 0.22468475 -0.045937415
0.34767023 -0.12711434 0.30946907 -0.1528857 -0.0031784298 -0.04127882 0.22117835 -0.04719634
0.087516464 -0.12751469 -0.05722871 0.04099368 -0.033633213 -0.34681982 -0.12536766 0.376141
0.2498349 0.21401611 0.012765224 0.23185539 0.24723125 0.44707724 0.030052062 -0.072478145
0.48796058 0.22222812 -0.09593441 0.16142061 -0.039870087 -0.08515141 0.1502485 0.28712398
0.3369272 0.2586771 0.092446655 0.1673618 -0.15641703 0.4307073 -0.09357622 0.15455654
0.26291353 -0.041072924 0.32694906 0.22260618 -0.06879407 0.21797399 0.41022822 0.25038403
-0.043617778 0.13496237 0.357425 -0.039523814 0.2793872 0.16201042 0.09216744 0.12789743
0.34531724 -0.122460596 0.21619205 -0.08640639 0.39360982 0.01051246 0.30539164 0.07013768
0.34292284 0.27990094 0.34006873 -0.1247077 0.34414858 -0.10098236 0.38620073 0.2830415
0.3462394 0.3614936 -0.13034685 0.35511595 -0.10216803 -0.050219767 0.3182041 0.36410153
0.33299175 -0.14245664 0.393489 0.2961582 0.0089569725 -0.025940737 0.20599099 0.30835745
0.011055598 0.2107184 0.32420015 -0.14937003 0.29202792 -0.1334201 0.28386232 0.25695732
0.0003641119 -0.04932088 -0.01857291 0.30072343 -0.22045393 -0.057909004 -0.09183706 -0.04965146
0.3458084 0.30510116 0.34030667 0.30332324 -0.14109515 0.042781483 0.34140062 -0.060018767
0.3904115 -0.029433277 -0.17584272 -0.1718459 0.37488434 0.30154517 0.027634721 -0.08293693
-0.14089523 0.28357595 0.3799119 -0.14429617 -0.1468728 0.42914516 -0.026990864 -0.20326138
0.22827718 0.46573842 0.39758155 0.33670032 0.03444985 0.31357855 -0.11765671 0.2692062
0.27819028 -0.05088761 -0.01285912 0.42065483 -0.16129148 -0.3428664 -0.20533897 0.23324087
0.31863436 -0.11079218 -0.04660483 0.22128832 0.33124402 -0.14194833 0.33051014 0.2673696
-0.0833005 -0.1292626 0.30262038 -0.07772354 0.2620383 0.3356377 -0.18443032 -0.056740426
-0.021541167 -0.11660102 -0.07726572 -0.16752386 -0.015302233 -0.036664993 -0.059970517 -0.04918181
0.20942086 0.3800551 0.0019863935 0.3054961 0.1896703 0.27928638 -0.071512274 0.33234954
0.38753712 0.28736106 -0.053281497 0.35479793 -0.11895214 0.36622673 0.2399065 -0.043125127
0.33605957 -0.24066138 0.32734329 -0.08730238 -0.086035155 -0.059955925 -0.063108645 -0.041157555

layer_1.bias f4 [8]
00000000: 6f65 213f 0d5b 153f 7220 523f d02a 483f
00000010: 80b8 183f 0452 313f af16 3a3f 8748 2c3f
0.630454 0.5834206 0.8208076 0.78190327 0.59656525 0.6926577 0.7269086 0.6729817

layer_2.weight f4 [8, 8]
00000000: d7b1 c8be 3731 ff3e 86c7 843c 44d3 823f
00000010: 3905 5e3f 99f8 453f da54 b83e 9b1d 95be
00000020: 35b5 223e 703b 153f f412 873f 5519 ea3e
00000030: f3bc 43bf 6edb 3fbe 44e3 4fbf 4ddd 4f3e
00000040: 4db2 453e 4800 7dbf bc9b a83f 7a85 44be
00000050: 9026 a23d e707 63be 7719 563f 58b2 743e
00000060: 53b9 51bf a1dd 453f 3350 f33e 6eb3 243f
00000070: 5e4c 01be 2eb7 6a3e 651f ed3e d56e 08bf
00000080: 086e efbe 2ca6 72bd 8112 863f 4247 c63e
00000090: b055 d43d b6d1 e73d c805 9a3e 363d b8be
000000a0: 6fba 7d3f 75ee 04be 0fc5 2fbf 8f7d 5d3f
000000b0: 1457 653f 4b25 693f 7ade 683f f14b 8c3f
000000c0: 8a50 f93e 7b49 703f 2812 df3e fac4 3b3d
000000d0: 38cd 9cbe 0d10 f0be f3cb c5be 26d1 f53e
000000e0: b7bc 02bf dbcb 8e3f b83c 57be 0623 9b3e
000000f0: ade7 d73d b2b6 ce3c a519 07bd 2426 fabd
-0.3919818 0.49842235 0.016208421 1.0220723 0.8672672 0.77332455 0.36002237 -0.2912415
0.15889437 0.5829382 1.0552659 0.45722452 -0.7646019 -0.1873605 -0.81206155 0.20299263
0.19306298 -0.98828554 1.3172526 -0.19191542 0.079175115 -0.22170983 0.83632606 0.23896158
-0.8192341 0.77291304 0.47522125 0.6433629 -0.12626788 0.2292144 0.46313015 -0.53294116
-0.46763635 -0.059240505 1.0474397 0.3872624 0.10367906 0.11319296 0.30082536 -0.359842
0.991126 -0.12981589 -0.6866006 0.8651971 0.89585996 0.9107253 0.9096447 1.0960675
0.4869426 0.9386212 0.4356854 0.04584215 -0.3062532 -0.46887246 -0.38632163 0.4801113
-0.51069206 1.1155962 -0.21019256 0.30300158 0.105422355 0.0252336 -0.03298344 -0.12214306

layer_2.bias f4 [8]
00000000: 8184 a73e 6000 0e3f 2c9e 013f 0359 5dbe
00000010: 2ca5 183f 33ea c23e 17b9 f63e 0213 1dbe
0.3271828 0.5546932 0.50631976 -0.21615987 0.5962703 0.38069305 0.48188087 -0.15339282

layer_3.weight f4 [7, 8]
00000000: fe21 c33e 7c31 5ebf 1ad2 babf e312 d73e
00000010: b98b d4bc ecff 9ebd 2e5f 13bf 10c5 c83e
00000020: 5ecc 98bd bed5 9f3e 79d8 d6be 1aec 9b3e
00000030: 5904 c73d c7cf 81bf f794 eb3e 6c47 b63e
00000040: 4aee b5bf 8d7c 2f3f 4587 513f 0c83 6bbf
00000050: e6e8 373f bc7b 40bf 2852 9c3e 6fc6 10bf
00000060: 52e5 ee3e c1d7 32bf 83cf 80bf 4f94 82bf
00000070: 77c2 e6be 479a 2a3f 4f62 2ebf 3e99 6bbf
00000080: 4832 9cbf c448 6abf 8060 153e a5f3 debe
00000090: ed64 67bf a2ea 063f e7b8 f63d c92a 3bbf
000000a0: f476 3ebf 2d7c f83e 2b4b 8dbf c0d0 1bbf
000000b0: 372c 15bf e1f1 7d3e 09a0 0f3f 9c73 38be
000000c0: 171e 663d 8a26 b03d ead6 bb3e a354 013f
000000d0: b433 063f 5a3b 54be 59ca 6bbf eb31 9abf
0.3811187 -0.8679426 -1.4595368 0.42006597 -0.025945531 -0.07763657 -0.5756711 0.39212847
-0.07460855 0.3121776 -0.4196203 0.3045357 0.09717626 -1.0141534 0.4601209 0.35601366
-1.4213345 0.68549424 0.8184703 -0.91996837 0.7183975 -0.75188804 0.3053143 -0.56552786
0.46659333 -0.69860464 -1.0063328 -1.020151 -0.4507024 0.6664166 -0.68118757 -0.92030704
-1.2202845 -0.9151728 0.14587593 -0.4354526 -0.90388376 0.5270177 0.12046986 -0.7311216
-0.7440026 0.4853224 -1.1038564 -0.608654 -0.5827059 0.247993 0.5610357 -0.18012851
0.05618104 0.08601101 0.36687404 0.5051977 0.5242264 -0.20725766 -0.92105633 -1.2046484

layer_3.bias f4 [7]
00000000: cb06 71be 95a3 bfbd fc20 ca3d b1a9 48be
00000010: f1bc 6d3e 3ba2 3a3e 7212 e2bc
-0.23537748 -0.09357373 0.098695725 -0.19595982 0.23216607 0.18225949 -0.027596686
